Machine Learning/exportedModels/converted_model.tflite (tflite, 178368 bytes, 12 tensors)

sequential/conv2d_3/BiasAdd;sequential/conv2d_3/Conv2D;conv2d_3/bias f4 [128]
-0.009359396 -0.009230175 -0.02188782 -0.009114134 -0.00090475974 0.09051818 -0.0041412995 0.07825537
0.06570214 0.055169605 0.01942755 -0.01013948 -0.02423296 0.094021946 0.0 0.12615243
-0.013560502 -0.006828835 -0.013508968 -0.070837155 0.0 0.02379307 0.07196115 -0.05630417
0.028663626 0.042872824 0.11673896 -0.00952303 -0.021757443 -0.014896024 -0.0018914385 0.03396835
-0.028292377 -0.019738682 -0.021790693 0.11951652 0.083365396 -0.05646223 -0.013645675 -0.019885276
-0.0056542056 -0.031316917 -0.043334726 -0.06562819 -0.008101899 0.0 -0.0019009731 -0.0068319566
-0.014207252 -0.037172407 0.043548793 -0.0074526775 -0.03319219 -0.014514524 -0.007085475 -0.0061575887
0.06988368 0.07510109 0.00028337655 -0.029595334 0.0075763185 -0.00858248 0.0014682097 -0.02462273
-0.008630052 -0.04092405 0.037694547 -0.011181655 -0.0074283443 0.054627717 -0.038521886 -0.06444798
-0.040026292 -0.087365046 -0.028351076 0.010713079 -0.0048384424 -0.030719258 0.09400182 -0.01659321
-0.015418904 -0.009920864 -0.012748746 -0.0064494256 -0.0076453397 -0.0028598504 -0.0060027153 -0.030290404
-0.068796456 -0.00723382 -0.006353937 0.001094319 -0.0034502638 -0.024214791 -0.03582733 -0.034683686
0.086495414 -0.042347554 -0.0055519403 -0.05804861 -0.04963122 -0.004545786 -0.019002432 -0.00884356
0.054687534 -0.008396329 -0.033675294 -0.018484388 -0.011970522 -0.067187496 0.036601264 0.077459715
0.009510309 0.0054601217 -0.096738346 -0.076004885 -0.008726436 -0.005967267 0.11506931 0.051036898
-0.024928033 -0.0109323105 0.111674875 -0.0042814715 0.04000425 -0.07263617 -0.10454724 -0.07156901
00000000: 2758 19bc 293a 17bc 164e b3bc 7353 15bc
00000010: 662d 6dba 9861 b93d bdb3 87bb 5a44 a03d
00000020: d88e 863d 86f9 613d 8626 9f3c 1020 26bc
00000030: 3384 c6bc 948e c03d 0000 0000 1a2e 013e
00000040: de2c 5ebc 6bc4 dfbb b854 5dbc 1213 91bd
00000050: 0000 0000 afe9 c23c 5e60 933d 349f 66bd
00000060: fbcf ea3c 6a9b 2f3d d614 ef3d 7c06 1cbc
00000070: aa3c b2bc 740e 74bc 25ea f7ba 6622 0b3d
00000080: 6ac5 e7bc 04b3 a1bc 6582 b2bc 14c5 f43d
00000090: 7abb aa3d f044 67bd 1c92 5fbc 72e6 a2bc
000000a0: ea46 b9bb 2b46 00bd c17f 31bd 1368 86bd
000000b0: d4bd 04bc 0000 0000 132a f9ba 9bde dfbb
000000c0: 89c5 68bc 1842 18bd 3860 323d 9735 f4bb
000000d0: 89f4 07bd 53ce 6dbc 462d e8bb 99c5 c9bb
000000e0: 2d1f 8f3d 9ace 993d 2892 9439 ea71 f2bc
000000f0: c442 f83b 889d 0cbc f170 c03a 9cb5 c9bc
00000100: 1065 0dbc fa9f 27bd 9965 1a3d 4333 37bc
00000110: 7869 f3bb 50c1 5f3d 20c9 1dbd 4dfd 83bd
00000120: 9cf2 23bd 72ec b2bd 8440 e8bc e985 2f3c
00000130: cc8b 9ebb f4a6 fbbc 0784 c03d 7cee 87bc
00000140: 929f 7cbc 1f8b 22bc 1ee0 50bc b455 d3bb
00000150: c285 fabb 546c 3bbb 6db2 c4bb 9523 f8bc
00000160: 28e5 8cbd ae09 edbb b034 d0bb 416f 8f3a
00000170: d21d 62bb 195e c6bc aebf 12bd 7b10 0ebd
00000180: 8224 b13d a174 2dbd 0ded b5bb 61c4 6dbd
00000190: 1b4a 4bbd d1f4 94bb fdaa 9bbc 94e4 10bc
000001a0: 0900 603d c290 09bc 1bef 09bd 926c 97bc
000001b0: 0220 44bc 9999 89bd 35eb 153d 33a3 9e3d
000001c0: 21d1 1b3c d2ea b23b c11e c6bd 73a8 9bbd
000001d0: 53f9 0ebc 1089 c3bb 75a9 eb3d 110c 513d
000001e0: e035 ccbc 6f1d 33bc ccb5 e43d 964b 8cbb
000001f0: 7fdb 233d 46c2 94bd dd1c d6bd c692 92bd

sequential/conv2d_2/BiasAdd;sequential/conv2d_1/Conv2D;sequential/conv2d_2/Conv2D;conv2d_2/bias f4 [64]
0.055570707 0.08537419 -0.046809223 -0.019709103 -0.028939374 -0.015859583 -0.06331698 0.09570015
-0.0056339605 -0.0065844688 0.028696176 -0.114512175 -0.07459783 -0.09353751 -0.022369169 0.043002885
-0.017120264 -0.0023623563 0.04323633 -0.021263989 -0.016718829 0.030292297 -0.018057318 -0.058036212
-0.006440078 -0.002093828 0.030613225 -0.09948836 -0.0075445874 0.063655026 0.058758173 -0.035100445
-0.007213109 -0.013780203 -0.037473485 -0.010160979 -0.02230797 -0.022567369 -0.013426441 -0.036609232
-0.06854362 -0.031535484 -0.074575536 -0.054384325 -0.024833385 -0.019640721 0.011003898 0.021192793
-0.11045446 -0.012710065 0.10047264 -0.017837228 -0.06742557 0.06949208 0.04383084 -0.024110006
0.042053487 -0.015890293 0.026983988 0.053622585 -0.012111094 0.092824794 -0.024906643 -0.04953372
00000000: 1c9e 633d aad8 ae3d 07bb 3fbd fc74 a1bc
00000010: 4412 edbc f5eb 81bc 55ac 81bd 71fe c33d
00000020: 169d b8bb 87c2 d7bb 3e14 eb3c 5c85 eabd
00000030: bfc6 98bd 9890 bfbd 8c3f b7bc cb23 303d
00000040: cc3f 8cbc c3d1 1abb 9418 313d d131 aebc
00000050: edf5 88bc 8d27 f83c f1ec 93bc 61b7 6dbd
00000060: 4a07 d3bb 9b38 09bb 96c8 fa3c 8ec0 cbbd
00000070: 9638 f7bb 915d 823d 69ac 703d 7cc5 0fbd
00000080: f25b ecbb 5cc6 61bc cc7d 19bd 3c7a 26bc
00000090: 34bf b6bc 34df b8bc 93fa 5bbc 90f3 15bd
000000a0: 9960 8cbd 5a2b 01bd 0fbb 98bd 19c2 5ebd
000000b0: 626f cbbc 94e5 a0bc b249 343c 829c ad3c
000000c0: f335 e2bd e03d 50bc 99c4 cd3d 611f 92bc
000000d0: 6b16 8abd dd51 8e3d f887 333d 5982 c5bc
000000e0: 4740 2c3d 5c2c 82bc 860d dd3c 5ba3 5b3d
000000f0: 9c6d 46bc ed1a be3d 0409 ccbc dfe3 4abd

sequential/conv2d_1/BiasAdd;sequential/conv2d_1/Conv2D;conv2d_1/bias f4 [64]
0.0050459886 0.031185446 0.024612963 0.070906855 -0.007733741 -0.044859957 -0.03457001 -0.0048027514
-0.018967353 -0.011130393 -0.058313675 -0.051412076 0.060784932 -0.030783625 0.0031851493 -0.06976875
0.037561867 -0.012201201 -0.027104288 0.05595462 0.017117765 -0.012029009 -0.02347163 0.0037687263
0.031306587 0.009238974 0.009515821 -0.014136149 -0.014650842 0.008241002 -0.015261693 -0.016554292
-0.053893384 0.0257209 -0.058836356 -0.056469757 0.012309409 -0.024976792 -0.0017476989 0.016774924
-0.0025214194 -0.051698852 0.04751044 0.018118791 -0.03162256 0.16392337 -0.04226155 -0.031057509
0.0032686251 -0.035082843 -0.020129599 -0.0029477417 -0.016614662 0.03341194 -0.023708638 -0.0042664516
0.05339292 -0.04241205 0.046911325 -0.049272526 -0.038735226 -0.033880156 -0.016185366 -0.033890568
00000000: d258 a53b 9f78 ff3c 20a1 c93c 9d37 913d
00000010: 526b fdbb 13bf 37bd 4899 0dbd 6660 9dbb
00000020: 6c61 9bbc 405c 36bc 52da 6ebd 7895 52bd
00000030: 9ff9 783d f12d fcbc f0bd 503b ebe2 8ebd
00000040: 79da 193d 8ce7 47bc d009 debc ac30 653d
00000050: 8e3a 8c3c 5215 45bc 9347 c0bc bcfc 763b
00000060: 563b 003d 115f 173c 3fe8 1b3c 4e9b 67bc
00000070: 160a 70bc 4505 073c 2e0c 7abc de9c 87bc
00000080: 4fbf 5cbd a3b4 d23c 64fe 70bd d54c 67bd
00000090: 67ad 493c 219c ccbc 0b13 e5ba 916b 893c
000000a0: 663e 25bb 2dc2 53bd 4f9a 423d dc6d 943c
000000b0: a886 01bd 87db 273e 721a 2dbd 516c febc
000000c0: 6e36 563b 07b3 0fbd d4e6 a4bc e62e 41bb
000000d0: 791b 88bc f5da 083d 9e38 c2bc 97cd 8bbb
000000e0: 89b2 5a3d 42b8 2dbd 1726 403d fdd1 49bd
000000f0: d4a8 1ebd ebc5 0abd 2c97 84bc d6d0 0abd

sequential/conv2d/BiasAdd;sequential/conv2d/Conv2D;conv2d/bias f4 [32]
0.024828121 0.0013008891 0.005085593 -0.010624853 -0.0075457976 -0.043428354 -0.005158158 -0.0023380418
-0.011687289 -0.034776177 0.00072850444 0.0019614808 0.014019507 0.015945226 0.08461504 0.030682232
-0.032402378 -0.0015865907 -0.004943267 0.00913217 0.089563325 -0.048479132 -0.0687134 0.0019862256
-0.07936526 -0.0011416579 -0.0293009 -0.017938735 -0.0054092784 -0.0388218 -0.0018380652 -0.0017059352
00000000: 5864 cb3c 9882 aa3a 0ca5 a63b dd13 2ebc
00000010: bd42 f7bb eee1 31bd c405 a9bb d539 19bb
00000020: 0b7c 3fbc 7771 0ebd 1bf9 3e3a 308c 003b
00000030: 13b2 653c 909f 823c a64a ad3d 4e59 fb3c
00000040: 5bb8 04bd 26f5 cfba 21fb a1bb 199f 153c
00000050: fa6c b73d 0e92 46bd 9cb9 8cbd 562b 023b
00000060: 418a a2bd afa3 95ba 7108 f0bc 41f4 92bc
00000070: 5140 b1bb 9c03 1fbd 3ceb f0ba b099 dfba

sequential/conv2d_3/Conv2D i1 [128, 3, 3, 64]
-84 72 -55 -34 90 -86 11 15
16 54 -121 -20 -7 44 -97 -26
74 -37 80 -62 -41 82 12 -103
67 -14 -6 8 92 -57 -126 84
86 84 -49 1 -127 24 -67 5
68 79 -40 9 98 -47 -32 -37
-81 55 -16 23 -86 -14 47 -8
-114 -80 -12 -110 -81 -30 37 23
71 -92 43 32 65 95 -91 -16
-29 58 41 63 66 -97 48 84
-70 7 -15 41 -48 50 -28 -16
35 -112 -54 -82 -77 25 -70 -56
-78 -63 80 81 71 23 -15 -66
-14 -108 -54 6 -73 -65 18 46
-70 64 -79 -78 -111 47 -20 -35
-30 -100 60 41 74 -36 -102 -20
27 -35 51 -81 31 20 98 -22
-52 11 91 78 -61 107 98 -29
22 54 -64 -70 23 -46 -20 15
-37 7 -38 84 -14 75 -32 2
-3 -31 88 -25 5 88 -1 -2
-65 75 -84 -70 93 95 2 -62
-67 53 85 75 85 -84 -66 -63
66 -11 26 -92 -2 78 -94 71
61 85 3 17 51 -112 29 -96
-8 83 -57 44 56 -51 -1 -54
39 16 -87 39 -61 24 -1 60
-90 -95 -67 -86 99 -30 -46 6
40 32 95 51 -107 -8 30 14
-112 62 12 33 27 41 81 99
-10 -13 -110 -66 -85 29 68 60
56 78 5 -16 -69 -36 -3 -55
00000000: ac48 c9de 5aaa 0b0f 1036 87ec f92c 9fe6
00000010: 4adb 50c2 d752 0c99 43f2 fa08 5cc7 8254
00000020: 5654 cf01 8118 bd05 444f d809 62d1 e0db
00000030: af37 f017 aaf2 2ff8 8eb0 f492 afe2 2517
00000040: 47a4 2b20 415f a5f0 e33a 293f 429f 3054
00000050: ba07 f129 d032 e4f0 2390 caae b319 bac8
00000060: b2c1 5051 4717 f1be f294 ca06 b7bf 122e
00000070: ba40 b1b2 912f ecdd e29c 3c29 4adc 9aec
00000080: 1bdd 33af 1f14 62ea cc0b 5b4e c36b 62e3
00000090: 1636 c0ba 17d2 ec0f db07 da54 f24b e002
000000a0: fde1 58e7 0558 fffe bf4b acba 5d5f 02c2
000000b0: bd35 554b 55ac bec1 42f5 1aa4 fe4e a247
000000c0: 3d55 0311 3390 1da0 f853 c72c 38cd ffca
000000d0: 2710 a927 c318 ff3c a6a1 bdaa 63e2 d206
000000e0: 2820 5f33 95f8 1e0e 903e 0c21 1b29 5163
000000f0: f6f3 92be ab1d 443c 384e 05f0 bbdc fdc9

sequential/conv2d_2/Conv2D i1 [64, 3, 3, 64]
40 -42 23 23 28 37 1 -12
-3 15 2 45 18 27 -15 -22
-30 -8 40 28 29 12 7 3
-14 35 11 -1 40 -37 20 -2
19 26 43 21 32 14 18 34
63 46 48 -6 9 104 -20 48
-9 7 -9 5 -30 17 -16 53
28 20 21 0 -16 51 46 12
-36 29 29 30 -26 12 12 -16
-2 4 14 34 -29 43 -32 24
4 21 32 -12 -25 29 -12 -7
29 -11 5 -7 44 -44 -14 16
17 32 -11 -45 -32 48 48 -10
46 51 61 -81 22 63 -13 46
-49 -30 57 -10 31 9 -4 -3
37 35 -13 13 26 14 33 2
-40 4 -13 91 -3 54 28 -25
-14 10 33 26 -29 -1 28 -37
-3 -19 22 -10 -38 -27 19 -3
27 -25 43 6 -7 27 13 -7
-49 -3 11 -11 -34 -34 21 30
51 47 83 -48 -24 127 -27 -32
17 -10 15 -8 -15 8 -18 -41
-3 -13 30 9 6 0 -25 -63
7 -18 24 7 -20 -4 -3 -5
-28 -37 -29 -51 -19 5 -13 -24
-21 30 -37 11 18 -21 -35 -4
-32 -29 13 -1 26 -6 10 12
-49 23 8 6 10 -8 -14 19
25 -6 9 -12 26 78 12 -8
-19 -14 -11 -10 52 25 3 -54
17 -5 42 28 13 -39 16 -31
00000000: 28d6 1717 1c25 01f4 fd0f 022d 121b f1ea
00000010: e2f8 281c 1d0c 0703 f223 0bff 28db 14fe
00000020: 131a 2b15 200e 1222 3f2e 30fa 0968 ec30
00000030: f707 f705 e211 f035 1c14 1500 f033 2e0c
00000040: dc1d 1d1e e60c 0cf0 fe04 0e22 e32b e018
00000050: 0415 20f4 e71d f4f9 1df5 05f9 2cd4 f210
00000060: 1120 f5d3 e030 30f6 2e33 3daf 163f f32e
00000070: cfe2 39f6 1f09 fcfd 2523 f30d 1a0e 2102
00000080: d804 f35b fd36 1ce7 f20a 211a e3ff 1cdb
00000090: fded 16f6 dae5 13fd 1be7 2b06 f91b 0df9
000000a0: cffd 0bf5 dede 151e 332f 53d0 e87f e5e0
000000b0: 11f6 0ff8 f108 eed7 fdf3 1e09 0600 e7c1
000000c0: 07ee 1807 ecfc fdfb e4db e3cd ed05 f3e8
000000d0: eb1e db0b 12eb ddfc e0e3 0dff 1afa 0a0c
000000e0: cf17 0806 0af8 f213 19fa 09f4 1a4e 0cf8
000000f0: edf2 f5f6 3419 03ca 11fb 2a1c 0dd9 10e1

sequential/conv2d_1/Conv2D i1 [64, 3, 3, 32]
-24 65 28 11 36 37 62 7
49 59 9 113 74 55 77 -5
-42 -17 23 -44 38 -25 -5 75
-46 49 17 13 -69 -84 9 -2
-25 115 86 44 62 -48 -14 -46
61 26 25 91 69 8 -4 60
-36 64 62 38 108 -17 1 114
22 95 -17 36 10 -47 10 -47
56 15 107 40 55 -21 74 11
12 23 63 118 73 10 45 69
-24 42 33 -36 64 8 21 36
-42 49 -30 4 -23 -49 54 -51
-46 100 101 49 24 45 23 18
-49 -27 29 69 102 54 24 9
-3 3 -6 63 126 -25 -27 29
-45 111 50 52 66 53 -29 -8
-24 76 102 22 124 19 23 -23
-37 -11 49 100 118 50 15 68
18 88 -3 18 101 -73 -16 9
42 53 31 0 54 47 63 23
-33 76 98 60 52 -57 49 2
-43 -51 29 44 63 4 43 58
-61 67 14 27 51 -27 -68 100
12 122 -16 -8 25 -27 0 55
-76 67 -13 127 51 -86 -62 -5
-77 32 -12 50 15 31 3 18
-23 -27 34 48 100 -36 7 39
-1 94 25 16 38 26 10 -10
-4 20 -8 116 -11 -56 -35 10
-37 -36 67 96 42 -9 -17 25
-17 -15 17 35 50 -13 -44 15
-57 121 -53 8 116 40 -66 31
00000000: e841 1c0b 2425 3e07 313b 0971 4a37 4dfb
00000010: d6ef 17d4 26e7 fb4b d231 110d bbac 09fe
00000020: e773 562c 3ed0 f2d2 3d1a 195b 4508 fc3c
00000030: dc40 3e26 6cef 0172 165f ef24 0ad1 0ad1
00000040: 380f 6b28 37eb 4a0b 0c17 3f76 490a 2d45
00000050: e82a 21dc 4008 1524 d631 e204 e9cf 36cd
00000060: d264 6531 182d 1712 cfe5 1d45 6636 1809
00000070: fd03 fa3f 7ee7 e51d d36f 3234 4235 e3f8
00000080: e84c 6616 7c13 17e9 dbf5 3164 7632 0f44
00000090: 1258 fd12 65b7 f009 2a35 1f00 362f 3f17
000000a0: df4c 623c 34c7 3102 d5cd 1d2c 3f04 2b3a
000000b0: c343 0e1b 33e5 bc64 0c7a f0f8 19e5 0037
000000c0: b443 f37f 33aa c2fb b320 f432 0f1f 0312
000000d0: e9e5 2230 64dc 0727 ff5e 1910 261a 0af6
000000e0: fc14 f874 f5c8 dd0a dbdc 4360 2af7 ef19
000000f0: eff1 1123 32f3 d40f c779 cb08 7428 be1f

sequential/conv2d/Conv2D f4 [32, 3, 3, 3]
-0.08628901 -0.07641564 0.118873626 0.062052894 -0.04822432 -0.115854695 -0.05354212 -0.103770405
0.11471784 0.15782914 0.118880205 0.10842208 -0.018165056 -0.1392277 0.09586915 0.15237424
-0.0031528194 0.047508482 0.14203471 -0.13240404 -0.098066114 0.018942386 -0.102619074 -0.1461267
0.15101542 -0.14764477 -0.025612947 0.11304393 -0.056761798 0.0039713085 -0.086151585 0.05430758
0.07137705 -0.020578561 -0.10003605 -0.10170501 -0.06590565 0.14556663 0.13310568 0.11784345
0.119122095 0.10488046 -0.14293866 0.04765486 -0.10237096 -0.059407696 -0.054426137 0.05616463
-0.039187714 0.037023596 0.115423895 -0.14078353 -0.024974221 -0.15145145 -0.10405358 0.11351668
0.0148039395 -0.0718767 0.05649777 0.086932465 0.109102726 -0.09029739 0.033277117 -0.079997785
0.055758897 0.1256335 -0.12207613 0.043684337 -0.095141105 0.105869725 0.016573677 -0.10336602
-0.17539805 -0.16892587 -0.10875682 -0.019795893 0.09300326 0.029570986 0.14848484 0.045441713
0.034267135 0.04672703 0.16189568 -0.0853635 -0.11137465 -0.13348302 -0.15006244 0.07220661
-0.08980303 0.066360794 0.11359813 0.04785413 0.03831459 0.06414354 0.044769496 0.053422194
-0.12929744 -0.0867579 0.07677178 -0.024854537 -0.0088442555 -0.12495695 -0.047956754 0.12680607
0.11251843 -0.11473145 0.051535558 -0.029871374 0.050936624 -0.1621739 -0.034119714 0.13901676
-0.100940056 0.1080508 -0.08750448 -0.08096122 0.013082866 -0.0862698 -0.019078145 -0.17499252
0.043283433 0.13028196 -0.065451436 0.056240696 0.10970621 0.06103921 -0.057957795 0.03634581
-0.15317987 -0.042924892 0.028650744 -0.01777562 0.016611278 0.02251146 0.14094616 0.116317615
0.11539624 -0.047458902 0.13509052 -0.02468665 0.121944174 0.1239846 0.118166946 0.11486055
0.12025014 -0.0036099541 -0.019372052 0.1520293 -0.07490841 0.018391937 0.042640235 0.102485195
0.112586886 0.13728704 0.10777796 0.1322223 -0.04694225 0.124648936 0.11874866 0.09782141
-0.0783082 0.04701268 -0.091043316 0.020801648 0.1262901 -0.12955661 0.13071382 0.09314744
-0.10282065 -0.03901093 -0.009339459 0.1358942 -0.023499032 -0.086099505 -0.025666906 -0.025078788
0.09813936 -0.024464441 -0.0012458173 -0.07106508 0.087902375 -0.11776697 0.012332128 0.07554721
0.033249795 -0.059467603 -0.04419575 -0.030511454 -0.03627181 0.018989436 -0.07129991 -0.006975043
-0.03221716 -0.078523085 -0.13129659 -0.021097308 -0.16585863 0.066659704 0.061541706 -0.017818954
-0.043539684 0.055448625 0.04991624 -0.1068271 -0.03995679 -0.06766904 -0.04585182 0.105216525
0.13846922 0.14091948 0.104738325 -0.13339984 0.11378107 0.10097447 -0.0018297608 -0.029038405
0.08155072 -0.034336977 0.032434728 -0.062229354 0.0440633 -0.029747372 0.03652894 0.033240587
0.06007403 -0.076063804 0.008527453 0.025843974 -0.05922309 0.0080318265 -0.0875608 0.09672465
0.039902467 0.0029021776 0.021692434 0.06848027 -0.088478446 0.13290145 -0.008225263 0.015266347
0.018515578 0.05200132 0.030834049 -0.11634121 0.0054955753 -0.100698 0.06778542 -0.106931016
0.057757985 0.12716824 -0.045280907 0.07521208 0.05623922 -0.10091595 -0.034202468 -0.054941252
00000000: 4bb8 b0bd ce7f 9cbd 0474 f33d 2d2b 7e3d
00000010: dd86 45bd 3a45 edbd fb4e 5bbd 9485 d4bd
00000020: 30f1 ea3d f69d 213e 7777 f33d 650c de3d
00000030: e2ce 94bc b591 0ebe 0b57 c43d fe07 1c3e
00000040: 889f 4ebb 4198 423d 8c71 113e ed94 07be
00000050: e3d6 c8bd 102d 9b3c f329 d2bd 3da2 15be
00000060: c9a3 1a3e 3130 17be 3ed2 d1bc 9383 e73d
00000070: 0f7f 68bd c021 823b 3e70 b0bd a071 5e3d
00000080: 212e 923d 5f94 a8bc b3df ccbd b74a d0bd
00000090: 8bf9 86bd 6b0f 153e db4c 083e e857 f13d
000000a0: 49f6 f33d 91cb d63d 835e 12be be31 433d
000000b0: dea7 d1bd 7c55 73bd f1ed 5ebd e20c 663d
000000c0: 4c83 20bd 0ea6 173d 5d63 ec3d 8f29 10be
000000d0: bd96 ccbc 1716 1bbe 0b1a d5bd 6f7b e83d
000000e0: 398c 723c 1734 93bd 356a 673d a609 b23d
000000f0: 4071 df3d d7ed b8bd 964d 083d e1d5 a3bd
00000100: 7163 643d 11a6 003e 0d03 fabd 59ee 323d
00000110: 57d9 c2bd 3ad2 d83d 85c5 873c 90b1 d3bd
00000120: 8c9b 33be e7fa 2cbe e5bb debd ff2a a2bc
00000130: 7e78 be3d da3e f23c 690c 183e 1721 3a3d
00000140: b25b 0c3d d864 3f3d fbc7 253e 0fd3 aebd
00000150: 6418 e4bd c6af 08be f8a9 19be 0fe1 933d
00000160: a7ea b7bd 2be8 873d 23a6 e83d b102 443d
00000170: c2ef 1c3d b05d 833d 3860 373d 3bd1 5a3d
00000180: 8c66 04be 20ae b1bd 863a 9d3d be9b cbbc
00000190: 7fe7 10bc 6ee9 ffbd 4d6e 44bd 73d9 013e
000001a0: 1070 e63d 53f8 eabd f316 533d d0b4 f4bc
000001b0: eca2 503d ea10 26be 1dc1 0bbd 695a 0e3e
000001c0: a9b9 cebd bd49 dd3d 8c35 b3bd ffce a5bd
000001d0: 8459 563c 39ae b0bd c549 9cbc 3d31 33be
000001e0: f849 313d a268 053e 670b 86bd a55c 663d
000001f0: a6ad e03d 4004 7a3d 2765 6dbd 58df 143d
00000200: 2fdb 1cbe 03d2 2fbd f7b4 ea3c 2d9e 91bc
00000210: 6014 883c f469 b83c 3154 103e ee37 ee3d
00000220: dd54 ec3d 4464 42bd 2b55 0a3e a83b cabc
00000230: debd f93d a3eb fd3d 8301 f23d 023c eb3d
00000240: b545 f63d fb94 6cbb 23b2 9ebc 92ad 1b3e
00000250: 9569 99bd b0aa 963c 87a7 2e3d c2e3 d13d
00000260: f493 e63d f994 0c3e b1ba dc3d 4865 073e
00000270: 8446 40bd f147 ff3d 7f32 f33d 9756 c83d
00000280: 0d60 a0bd 5e90 403d eb74 babd 3868 aa3c
00000290: 3152 013e 7daa 04be d8d9 053e 16c4 be3d
000002a0: a293 d2bd edc9 1fbd 8804 19bc d927 0b3e
000002b0: 0b81 c0bc f054 b0bd 6743 d2bc 0872 cdbc
000002c0: 4afd c83d a769 c8bc b14a a3ba 928a 91bd
000002d0: 2906 b43d cf2f f1bd b20c 4a3c 7fb8 9a3d
000002e0: f030 083d 4d94 73bd 9a06 35bd 28f3 f9bc
000002f0: c091 14bd bc8f 9b3c b005 92bd e78e e4bb
00000300: 24f6 03bd b6d0 a0bd 9d72 06be 43d4 acbc
00000310: d8d6 29be e284 883d 2813 7c3d 0ef9 91bc
00000320: ab56 32bd 191e 633d f974 4c3d 2bc8 dabd
00000330: bba9 23bd 1196 8abd 1ecf 3bbd c37b d73d
00000340: e0ca 0d3e 324d 103e 0c81 d63d f899 08be
00000350: 0d06 e93d b4cb ce3d 96d4 efba f3e1 edbc
00000360: 1004 a73d eea4 0cbd 47da 043d 35e4 7ebd
00000370: b87b 343d c3b0 f3bc 5f9f 153d 4827 083d
00000380: 3010 763d 57c7 9bbd bbb6 0b3c beb6 d33c
00000390: e993 72bd ec97 033c 1453 b3bd 9317 c63d
000003a0: c570 233d 7632 3e3b 55b4 b13c 623f 8c3d
000003b0: 3034 b5bd 5117 083e 41c3 06bc b31f 7a3c
000003c0: fbad 973c 56ff 543d b097 fc3c 4d44 eebd
000003d0: 3a14 b43b c13a cebd 15d3 8a3d a6fe dabd
000003e0: a393 6c3d 6438 023e 7978 39bd ca08 9a3d
000003f0: 195b 663d 06ad cebd e317 0cbd 140a 61bd

dense_1/bias f4 [4]
0.105640575 -0.0046085403 -0.064803675 -0.04167911
00000000: 165a d83d 3d03 97bb cab7 84bd b7b7 2abd

dense/bias f4 [256]
-0.010776545 0.009813683 -0.022468215 -0.015799282 0.087823875 0.040533043 -0.03659544 -0.023788465
0.13726541 -0.032157235 -0.025250638 0.004453478 -0.02782116 0.029328909 0.005303157 -0.009969414
-0.014371013 -0.03909574 -0.028509237 -0.023216458 -0.00822158 0.004577511 0.07249852 -0.012189624
0.025017299 -0.049590234 0.009554473 -0.0396341 -0.046537757 -0.017843133 0.02095901 0.11594678
0.041086044 0.017281381 0.09181344 -0.060286295 0.1139942 -0.031423703 -0.013124504 0.10895736
0.012566352 -0.037953977 0.0070936354 0.00062414136 -0.039567135 -0.016639398 -0.020567913 0.00015277273
-0.010393452 0.06748158 -0.069972605 0.0016487681 0.0481785 -0.014593511 0.009369705 -0.025877729
0.0 -0.00878668 -0.040243212 0.0128017925 0.00012268538 0.07216297 -0.024477268 -0.009906934
-0.016983122 -0.015679931 -0.058188014 -0.016086118 -0.0344574 -0.03182084 -0.014375045 -0.057053845
0.043432135 0.07832203 -0.0008633794 -0.062017947 -0.015183739 -0.07338913 -0.016637295 0.05206714
-0.0155914705 -0.020549146 -0.014968067 0.09584389 -0.022723798 0.0 -0.07321228 -0.032632597
-0.02131 -0.014965753 0.046003945 0.04021833 -0.02656074 -0.014260188 -0.01171207 0.0042078453
-0.0043750373 -0.00845016 0.10872409 0.09215324 -0.03344171 0.0014114559 -0.0006513919 -0.031305663
0.031098561 0.06309676 0.032529023 -0.058414128 0.07135843 0.060188547 -0.018216936 0.03931794
-0.029019412 0.070602104 0.0074402858 0.07182637 -0.008068724 -0.014074523 0.034511097 0.053501416
0.008595511 -0.05237355 0.07780742 0.026151465 -0.022029987 0.07499897 0.0057179397 -0.0015959396
0.11207562 -0.0049222712 0.083329536 0.01632175 -0.00949903 -0.0045974343 -0.060231358 0.096147545
-0.0028614528 -0.06280018 0.068750724 0.06347154 0.05700378 -0.04242999 0.04216666 -0.015479135
-0.041261837 0.084721684 -0.009531075 -0.025875384 0.044798702 0.068611085 -0.042371385 0.12413258
-0.00019860441 0.0 -0.04662871 -0.014420903 -0.02056583 -0.007675544 -0.009904044 -0.08517622
0.043392774 0.04479477 -0.041145436 -0.06398149 0.03634374 -0.006734436 -0.041300453 0.053321246
-0.034233104 0.085651666 -0.048118718 0.004888746 -0.008557876 0.09481571 0.062531196 -0.019427106
-0.02563602 0.0977001 -0.032688145 -0.020223191 -0.013809291 0.0 0.094027616 0.11119177
-0.06304314 0.02092676 -0.05189357 -0.0046468317 -0.003584085 0.061942305 -0.029102577 0.069271535
-0.013987531 -0.019904941 0.059798773 -0.059491903 -0.009109909 -0.025273878 0.0072665093 0.11548952
0.084468514 -0.03888205 0.089925006 0.009610051 -0.050317902 0.013749509 -0.012861608 0.056863323
-0.008728022 -0.010357772 -0.02104615 -0.017468225 -0.011476351 -0.055818897 0.021459807 -0.04571351
0.03217593 -0.032946218 0.0027863868 -0.046304084 0.05581139 -0.07082388 0.038365416 -0.009652144
-0.00962017 0.078115225 -0.012721326 -0.010110431 -0.060145117 -0.002928859 0.0 0.055038597
0.10502249 0.0501996 -0.01372737 -0.01970208 -0.058487512 -0.01998754 -0.015303166 -0.03900072
0.03380084 -0.022670548 1.0390373e-05 0.08333071 -0.002531115 -0.046715513 0.08519657 0.082806036
-0.031868886 0.04000596 -0.01826498 0.02182491 -0.011937248 -0.014468781 0.057850912 -0.0085546905
00000000: 1b90 30bc 92c9 203c 430f b8bc 7f6d 81bc
00000010: 01dd b33d fa05 263d 1ae5 15bd 07e0 c2bc
00000020: 4e8f 0c3e 4eb7 03bd 6dda cebc 7bee 913b
00000030: 34e9 e3bc 2e43 f03c 1bc6 ad3b c156 23bc
00000040: 6674 6bbc db22 20bd 348c e9bc 7130 bebc
00000050: ceb3 06bc f2fe 953b 1b7a 943d fdb6 47bc
00000060: 14f1 cc3c 211f 4bbd 5d8a 1c3c 5e57 22bd
00000070: 609e 3ebd c32b 92bc 3bb2 ab3c 8175 ed3d
00000080: d749 283d af91 8d3c af08 bc3d c3ee 76bd
00000090: cb75 e93d 24b6 00bd 2908 57bc 0925 df3d
000000a0: 1ae3 4d3c a175 1bbd ba71 e83b 6b9d 233a
000000b0: 2611 22bd 594f 88bc 0a7e a8bc 9e31 2039
000000c0: 4c49 2abc c833 8a3d cc4d 8fbd 7a1b d83a
000000d0: d256 453d 9f19 6fbc 6483 193c 88fd d3bc
000000e0: 0000 0000 02f6 0fbc 11d6 24bd 9cbe 513c
000000f0: 1ba5 0039 2eca 933d 8d84 c8bc b150 22bc
00000100: 3020 8bbc 3373 80bc 8e56 6ebd 09c7 83bc
00000110: 3423 0dbd 9256 02bd 4f85 6bbc 4bb1 69bd
00000120: e5e5 313d 4d67 a03d 6954 62ba 8806 7ebd
00000130: 38c5 78bc 0a4d 96bd f04a 88bc 5a44 553d
00000140: 5e73 7fbc af56 a8bc a03c 75bc cd49 c43d
00000150: 4227 babc 0000 0000 52f0 95bd c2a9 05bd
00000160: 4f92 aebc eb32 75bc a26e 3c3d fabb 243d
00000170: e995 d9bc 90a3 69bc fbe3 3fbc f7e1 893b
00000180: 795c 8fbb 8a72 0abc bcaa de3d d7ba bc3d
00000190: 2dfa 08bd 9a00 b93a 2cc2 2aba 5e3a 00bd
000001a0: 69c2 fe3c e038 813d 273d 053d a743 6fbd
000001b0: 5e24 923d 4488 763d af3b 95bc d90b 213d
000001c0: 1eba edbc d697 903d a4cd f33b b419 933d
000001d0: ae32 04bc d498 66bc 825b 0d3d 4d24 5b3d
000001e0: 30d4 0c3c a685 56bd 7f59 9f3d 993b d63c
000001f0: 3b78 b4bc 0f99 993d 8e5d bb3b d92e d1ba
00000200: e787 e53d 014b a1bb ada8 aa3d 31b5 853c
00000210: d2a1 1bbc 13a6 96bb 28b5 76bd 01e9 c43d
00000220: 3687 3bbb 619d 80bd 2ecd 8c3d 5efd 813d
00000230: cc7c 693d 12cb 2dbd f3b6 2c3d 339c 7dbc
00000240: 2c02 29bd 9082 ad3d 3a28 1cbc 9df8 d3bc
00000250: d87e 373d f883 8c3d 9e8d 2dbd 3939 fe3d
00000260: 7740 50b9 0000 0000 bffd 3ebd a745 6cbc
00000270: ac79 a8bc 2183 fbbb 9244 22bc df70 aebd
00000280: 9fbc 313d b97a 373d 1e88 28bd ba08 83bd
00000290: 2cdd 143d 8bac dcbb aa2a 29bd 6167 5a3d
000002a0: 0338 0cbd 246a af3d 2218 45bd c631 a03b
000002b0: 5536 0cbc bd2e c23d 5b10 803d 9825 9fbc
000002c0: a102 d2bc fd16 c83d 01e4 05bd 1bab a5bc
000002d0: 5d40 62bc 0000 0000 8d91 c03d 83b8 e33d
000002e0: c31c 81bd 996e ab3c 5a8e 54bd 7344 98bb
000002f0: f8e2 6abb 37b7 7d3d 8768 eebc 3cde 8d3d
00000300: f52b 65bc b00f a3bc 8fef 743d c8ad 73bd
00000310: ba41 15bc 2a0b cfbc e61b ee3b c585 ec3d
00000320: d4fd ac3d c942 1fbd 9a2a b83d 7a73 1d3c
00000330: 251a 4ebd 9f45 613c 7eb9 52bc 84e9 683d
00000340: faff 0ebc a5b3 29bc fa68 acbc 8619 8fbc
00000350: 4e07 3cbc 5ba2 64bd 7acc af3c 173e 3bbd
00000360: e8ca 033d 9df2 06bd d09b 363b 5aa9 3dbd
00000370: 7c9a 643d 1c0c 91bd 0e25 1d3d 0724 1ebc
00000380: eb9d 1dbc e0fa 9f3d 1c6d 50bc 39a6 25bc
00000390: ba5a 76bd 1af2 3fbb 0000 0000 2770 613d
000003a0: 0816 d73d 199e 4d3d c3e8 60bc 4266 a1bc
000003b0: 9a90 6fbd e9bc a3bc 21ba 7abc 38bf 1fbd
000003c0: c072 0a3d 96b7 b9bc 5052 2e37 4ba9 aa3d
000003d0: 10e1 25bb c458 3fbd 8a7b ae3d 3696 a93d
000003e0: f388 02bd 4add 233d 70a0 95bc 27ca b23c
000003f0: 7294 43bc 770e 6dbc 14f5 6c3d f928 0cbc

sequential/dense/MatMul i1 [256, 128] scale=0.002290352 zero_point=0
-0.009161408 0.02290352 0.080162324 -0.020613167 0.061839506 -0.03435528 0.112227246 -0.016032465
0.098485135 -0.12596937 -0.013742112 -0.025193872 -0.093904436 0.09619478 -0.04580704 -0.029774576
0.04809739 0.013742112 0.054968446 0.059549153 0.073291264 -0.09619478 -0.087033376 0.10764655
0.07787197 0.059549153 -0.066420205 0.036645632 -0.041226335 -0.03206493 0.01145176 -0.13284041
-0.054968446 0.10306584 -0.1145176 -0.016032465 0.061839506 -0.013742112 -0.041226335 -0.10077549
0.04580704 -0.105356194 -0.12825972 0.07558162 0.054968446 -0.08932373 0.041226335 0.06412986
-0.09619478 0.016032465 -0.004580704 -0.09161408 0.07787197 0.098485135 -0.013742112 0.036645632
-0.041226335 -0.027484223 -0.06871056 -0.004580704 0.059549153 0.0 0.04809739 -0.050387744
0.10993689 -0.04580704 0.0 0.04580704 0.04809739 -0.11680795 0.105356194 0.050387744
-0.098485135 -0.09161408 0.027484223 -0.050387744 -0.020613167 0.006871056 0.025193872 -0.059549153
-0.004580704 0.043516688 0.059549153 0.07100091 0.050387744 -0.08245267 -0.10306584 -0.025193872
0.04580704 0.08245267 -0.06412986 -0.10077549 0.07558162 -0.029774576 -0.061839506 0.036645632
-0.052678097 0.1145176 0.07100091 0.10077549 -0.08932373 0.052678097 -0.12367901 0.052678097
-0.073291264 0.03435528 -0.09161408 0.059549153 -0.10764655 -0.073291264 0.112227246 -0.09161408
-0.119098306 -0.036645632 -0.105356194 -0.12596937 0.002290352 0.07787197 -0.13742112 -0.027484223
0.061839506 0.09619478 0.08245267 0.04809739 -0.09619478 0.03206493 -0.06412986 -0.07787197
0.004580704 -0.016032465 -0.12138866 0.002290352 -0.12367901 0.052678097 0.12367901 0.050387744
0.105356194 -0.12596937 0.13284041 -0.04580704 0.01145176 -0.013742112 -0.052678097 -0.087033376
0.01145176 0.043516688 0.12367901 0.050387744 0.073291264 -0.073291264 0.018322816 -0.10306584
0.006871056 -0.087033376 -0.013742112 -0.080162324 -0.027484223 0.080162324 -0.009161408 0.020613167
-0.12825972 0.12367901 0.025193872 0.1145176 -0.087033376 0.06871056 -0.04809739 0.12367901
0.0572588 -0.15574394 0.04580704 0.16032465 -0.061839506 -0.03206493 0.043516688 0.009161408
-0.07787197 0.08932373 0.093904436 0.08474302 0.006871056 0.025193872 -0.054968446 0.1145176
-0.04809739 -0.105356194 0.11680795 -0.17406675 0.050387744 -0.04809739 0.013742112 0.10764655
-0.10306584 0.112227246 -0.038935985 0.054968446 0.027484223 0.050387744 -0.013742112 0.14658253
-0.043516688 0.08245267 -0.04580704 0.13742112 0.06412986 -0.0572588 -0.13055007 0.01145176
-0.0572588 -0.004580704 0.038935985 -0.08245267 0.10306584 -0.050387744 -0.059549153 0.04580704
0.027484223 0.041226335 0.002290352 -0.080162324 0.01145176 -0.004580704 -0.036645632 -0.018322816
-0.12367901 0.07100091 -0.105356194 -0.041226335 0.009161408 0.020613167 0.07787197 0.03435528
0.08474302 -0.06412986 0.13284041 0.006871056 0.027484223 -0.01145176 0.10993689 -0.059549153
0.13284041 -0.066420205 0.10764655 0.0 0.025193872 0.066420205 0.13513076 -0.07100091
-0.07100091 0.004580704 -0.002290352 0.07558162 -0.061839506 0.08245267 -0.002290352 0.059549153
00000000: fc0a 23f7 1bf1 31f9 2bc9 faf5 d72a ecf3
00000010: 1506 181a 20d6 da2f 221a e310 eef2 05c6
00000020: e82d cef9 1bfa eed4 14d2 c821 18d9 121c
00000030: d607 fed8 222b fa10 eef4 e2fe 1a00 15ea
00000040: 30ec 0014 15cd 2e16 d5d8 0cea f703 0be6
00000050: fe13 1a1f 16dc d3f5 1424 e4d4 21f3 e510
00000060: e932 1f2c d917 ca17 e00f d81a d1e0 31d8
00000070: ccf0 d2c9 0122 c4f4 1b2a 2415 d60e e4de
00000080: 02f9 cb01 ca17 3616 2ec9 3aec 05fa e9da
00000090: 0513 3616 20e0 08d3 03da fadd f423 fc09
000000a0: c836 0b32 da1e eb36 19bc 1446 e5f2 1304
000000b0: de27 2925 030b e832 ebd2 33b4 16eb 062f
000000c0: d331 ef18 0c16 fa40 ed24 ec3c 1ce7 c705
000000d0: e7fe 11dc 2dea e614 0c12 01dd 05fe f0f8
000000e0: ca1f d2ee 0409 220f 25e4 3a03 0cfb 30e6
000000f0: 3ae3 2f00 0b1d 3be1 e102 ff21 e524 ff1a

sequential/dense_1/MatMul i1 [4, 256] scale=0.0027555462 zero_point=0
0.030311009 0.038577646 -0.11022185 -0.13777731 0.07715529 -0.038577646 0.038577646 -0.13226622
0.17911051 -0.14604396 -0.1074663 0.038577646 -0.09919967 0.15155505 0.049599834 -0.07439975
-0.12951067 -0.1487995 -0.14053285 -0.041333195 -0.06888866 0.041333195 0.12951067 0.02204437
-0.019288823 -0.16533278 0.033066556 -0.11297739 -0.1074663 -0.011022185 0.0358221 0.15982169
0.115732946 0.046844285 0.07715529 -0.1735994 0.07715529 -0.0055110925 -0.06888866 0.115732946
0.02204437 -0.057866473 0.027555462 -0.09919967 -0.11848849 0.0055110925 0.07715529 -0.057866473
0.06888866 0.115732946 -0.11022185 -0.055110924 0.08817748 0.06337757 -0.019288823 -0.19564378
-0.05235538 -0.055110924 -0.15431058 0.013777731 0.090933025 0.10471076 -0.11848849 0.0055110925
-0.079910845 0.057866473 -0.10471076 -0.019288823 -0.15706614 -0.0027555462 -0.07439975 -0.16257723
0.0055110925 0.15431058 -0.041333195 -0.033066556 -0.11297739 -0.11022185 -0.060622018 0.06613311
-0.13226622 -0.12675513 0.0 0.096444115 -0.02204437 -0.033066556 -0.13777731 -0.09368857
-0.057866473 0.11022185 0.07439975 0.013777731 0.0358221 0.049599834 0.011022185 -0.0358221
0.13777731 0.12399958 0.013777731 0.11848849 -0.079910845 -0.0055110925 0.079910845 -0.16533278
-0.05235538 0.11848849 0.06888866 -0.1432884 0.11297739 0.1432884 -0.115732946 0.0716442
-0.027555462 0.15155505 0.02204437 0.030311009 0.12675513 -0.1074663 0.07439975 0.1074663
0.0 -0.06337757 0.14053285 -0.024799917 0.0358221 0.05235538 0.0358221 0.024799917
0.19288823 -0.13226622 0.096444115 -0.07439975 0.0716442 0.09368857 -0.027555462 0.024799917
0.11297739 -0.1846216 0.0716442 0.13226622 0.024799917 -0.1735994 0.013777731 -0.12675513
0.016533278 0.1074663 0.019288823 -0.055110924 0.11022185 0.0027555462 -0.09368857 0.15431058
0.04408874 -0.10471076 -0.16257723 0.09368857 -0.14053285 -0.13502176 -0.15155505 -0.085421935
0.024799917 0.11022185 -0.19839934 -0.121244036 0.02204437 -0.10195521 -0.13777731 0.1074663
-0.041333195 0.12399958 -0.14604396 -0.011022185 -0.12399958 0.24524361 0.11022185 0.06337757
0.019288823 0.17084387 -0.115732946 -0.046844285 -0.07439975 -0.0716442 0.1487995 0.060622018
-0.13777731 0.0055110925 -0.11022185 -0.057866473 0.046844285 0.16533278 0.090933025 0.0358221
0.115732946 -0.008266639 0.121244036 -0.07715529 -0.06888866 -0.07439975 -0.011022185 0.08817748
0.10471076 -0.1487995 0.13226622 -0.0716442 -0.11022185 0.0716442 -0.038577646 0.05235538
-0.23697698 -0.121244036 -0.121244036 -0.13777731 0.14604396 -0.20115487 0.0716442 -0.10471076
-0.07439975 0.049599834 0.09368857 -0.115732946 -0.06888866 -0.1487995 0.046844285 0.12399958
-0.14053285 0.15431058 -0.0716442 -0.06613311 0.046844285 0.11297739 -0.0055110925 0.1432884
0.13777731 0.085421935 -0.12675513 -0.07715529 -0.15155505 -0.0055110925 0.05235538 -0.19013269
0.030311009 0.008266639 -0.013777731 0.11297739 -0.11848849 -0.1487995 0.13226622 0.041333195
-0.1846216 0.12399958 0.016533278 0.1074663 0.12399958 0.07439975 0.085421935 0.07715529
00000000: 0b0e d8ce 1cf2 0ed0 41cb d90e dc37 12e5
00000010: d1ca cdf1 e70f 2f08 f9c4 0cd7 d9fc 0d3a
00000020: 2a11 1cc1 1cfe e72a 08eb 0adc d502 1ceb
00000030: 192a d8ec 2017 f9b9 edec c805 2126 d502
00000040: e315 daf9 c7ff e5c5 0238 f1f4 d7d8 ea18
00000050: d0d2 0023 f8f4 cede eb28 1b05 0d12 04f3
00000060: 322d 052b e3fe 1dc4 ed2b 19cc 2934 d61a
00000070: f637 080b 2ed9 1b27 00e9 33f7 0d13 0d09
00000080: 46d0 23e5 1a22 f609 29bd 1a30 09c1 05d2
00000090: 0627 07ec 2801 de38 10da c522 cdcf c9e1
000000a0: 0928 b8d4 08db ce27 f12d cbfc d359 2817
000000b0: 073e d6ef e5e6 3616 ce02 d8eb 113c 210d
000000c0: 2afd 2ce4 e7e5 fc20 26ca 30e6 d81a f213
000000d0: aad4 d4ce 35b7 1ada e512 22d6 e7ca 112d
000000e0: cd38 e6e8 1129 fe34 321f d2e4 c9fe 13bb
000000f0: 0b03 fb29 d5ca 300f bd2d 0627 2d1b 1f1c
