Android/Capstone Project/app/src/main/assets/CapstoneProject.tflite (tflite, 800400 bytes, 12 tensors)

sequential/conv2d_3/BiasAdd;sequential/conv2d_2/Conv2D;sequential/conv2d_3/Conv2D;conv2d_3/bias f4 [128]
00000000: f149 a4bc 31cc 17bd 31b1 793d 481a 81bd
00000010: ad1c 98ba 29c6 1cbd aeb1 a6bc 84be 1e3d
00000020: fde9 87bc d39d ef3c 9afe b2bc f72c c3ba
00000030: be69 623c e414 a4bc a129 493c 96bd 653d
00000040: 6e23 99bc 8262 0dbd 3730 5c3d 9ac2 95bc
00000050: d2a2 b93d d661 4dbc 0107 ecbb b68b 17bc
00000060: 24cc 123d a6f0 823a 5df0 a2bc ba08 23bd
00000070: 211b 80bc 8b35 46bd 8bac c13c 7491 debc
00000080: 64c4 443d 3158 01bc 9f56 a63d 3deb 29bd
00000090: 34b3 1abd 16db 11bc d20c 0b3d 8018 623d
000000a0: 600b b2bc 71fb 4ebc 84b7 e3bb 962f 0bbc
000000b0: 098e 28bd 45c9 dbbb 419f ffbb 8ae7 8c3c
000000c0: 8cd7 c0bc 339b 8abd 12ac 46bc 0336 913c
000000d0: 492d 25bd f4e8 d13c 20c9 21bc f532 ecbb
000000e0: bf7e ccbc 9e6e 9fbb 87f8 7fbd 439e 793d
000000f0: 4ef1 0b3d c13e 4c3d 2e8d ccbb 1e00 23bc
00000100: 8772 86ba 4ece 22bd fd56 0cbc d2f5 1d3d
00000110: d2b1 39bd f840 bbbc 45ed 823d 8f18 a0bb
00000120: 7a0e edbc d034 81bc 621c 0abc dc5a 1cbd
00000130: 6be3 67bc fb62 17bd e72a 3cbd 1c4c 553d
00000140: 6f3f 0bbc ef9e 89bc a34e a3bc 7dc0 09bc
00000150: eddf dcbc 3ae1 50bc 2e47 82bd 2b49 f7bb
00000160: db68 593d 5b2c 373d 09ce 263d c11f 2bbc
00000170: 1125 f1bc 28cf 16bc 9b7e 78bc b4cc 38bc
00000180: 77e9 05bc 11ae 05bd e312 16bd 8bdd 28bd
00000190: b39e 7cbc 0ab4 a8bc 420e 72bc 5f74 123c
000001a0: f601 ac3b 4e76 57bd 7801 1b3d 447b aebd
000001b0: 3391 8cbc 155d d53b 284d 80bc 554c f13c
000001c0: d846 d2bc 4caa afbc 06d6 e0bc ada9 193d
000001d0: f5c5 04bc e909 d1bb a660 1f3d 99ed 113d
000001e0: 3e6e cabc 9ef9 93bd 418e 02bc 9e3c 50bc
000001f0: e001 70bc b53d ee3c 3cfb 14bd a329 09bc
-0.02005479 -0.037059966 0.06096 -0.06303841 -0.0011605226 -0.038274918 -0.020348396 0.03875591
-0.016591066 0.029250061 -0.02184992 -0.001489072 0.013819156 -0.020029493 0.0122779915 0.056089006
-0.018693652 -0.034517772 0.05375692 -0.01828127 0.09064259 -0.012535533 -0.0072029834 -0.009249618
0.035839215 0.0009989932 -0.019890005 -0.039803244 -0.015637936 -0.048390906 0.023641845 -0.027168967
0.048038855 -0.007894562 0.081219904 -0.041484106 -0.037768558 -0.008902332 0.033947773 0.055199146
-0.02173394 -0.0126331905 -0.006949367 -0.008495232 -0.04115108 -0.006707343 -0.007800967 0.01720025
-0.02354028 -0.06767883 -0.012125986 0.01772595 -0.04032639 0.025623776 -0.009874612 -0.007208223
-0.024962781 -0.0048654815 -0.062492874 0.060941946 0.034165673 0.049864534 -0.006242416 -0.009948758
-0.001025752 -0.03974753 -0.0085656615 0.03856451 -0.0453356 -0.022858128 0.06392912 -0.00488574
-0.028937567 -0.015772253 -0.008429619 -0.038172588 -0.014153342 -0.03695963 -0.045939352 0.052074537
-0.0084990105 -0.016799418 -0.019934958 -0.008407709 -0.026962245 -0.012749011 -0.06361233 -0.007546564
0.053078514 0.044720035 0.040723834 -0.010444582 -0.02943662 -0.009204663 -0.015166904 -0.011279274
-0.008173338 -0.032636706 -0.036639106 -0.041226905 -0.015418696 -0.020593662 -0.014773907 0.008938878
0.005249257 -0.05260306 0.037843198 -0.08519605 -0.01715908 0.0065113404 -0.015661791 0.029455343
-0.025668547 -0.021443509 -0.027445804 0.03751533 -0.008103837 -0.006379355 0.03891053 0.03562698
-0.02471077 -0.07225345 -0.007968486 -0.012709765 -0.014648885 0.029082159 -0.03637241 -0.008371743

sequential/conv2d_2/BiasAdd;sequential/conv2d_2/Conv2D;conv2d_2/bias f4 [128]
00000000: 475d 283c 136d adbd d031 e6bb 5e4c 56bd
00000010: 336f c4bb 5fa9 d43b 05cd 19bc a5ee 3f3c
00000020: 3af3 17bd f3e5 f0bc 13a2 c93b 0c0d 803a
00000030: 3ca9 53bd 0377 603b 609f 1cbd ea9b 8d3b
00000040: e4f9 96bc ff8a f7bc d9e4 50bc 328d 46bd
00000050: 0499 afbc eae3 3ebd 2a9c 20bd e3b2 72bd
00000060: caee 5ebd 7828 1a3b ea6d 61bd 7329 4bbd
00000070: ec84 f0bc 7e65 f4bc 58f4 1fbc 7635 d2bc
00000080: aec5 65bc 77e0 e63b d6e8 82bd c594 ca3b
00000090: 3ce1 abbc 36d8 8fbd 54be 273d 19a5 88bd
000000a0: 2e80 79bd 851d e3bb 8ab7 48bd 52ff c2bc
000000b0: c475 bcbb 9386 b33b ba65 a2bc e3cc 3bbb
000000c0: 512e 7cbc 086f b6bc 9ab3 34bd 8673 a5bc
000000d0: cce3 9ebb a8a2 a8bb 75b8 96bd c681 b13c
000000e0: 52ab 52bd 2858 57bc 5e6a 5ebd 16a1 083b
000000f0: a70b 73bc 29d4 39bd e3db 0fbd b746 81bc
00000100: fd28 a0bc 0a2b 81bd c796 23bd 17a4 a3bd
00000110: 8192 1d3d 1b6c 62bc 7036 93bc 22ff e2bc
00000120: a790 cdbc 5f06 19bd 54ff 5cbd 0356 e43c
00000130: b027 f8bb 7382 ddbc 3f81 73bc 82d2 cd3b
00000140: 026b 8abc 4874 05bd 35be aebb 9e8d 273d
00000150: 2f96 4bbd dfdd 8c3c eb2b 29bd 623e 96bc
00000160: 7605 0bbd 855c 30bc 846e f3bb eff4 1bbd
00000170: 876c e63c de7d 70bd 4676 aabd 476a 053d
00000180: 26e4 213d 87cb 08bd 7090 a5bc 9387 42bd
00000190: debf 5bbd bc0c 61bd efb0 d6bc b047 8ab9
000001a0: 4b91 0ebd 4249 77bd f447 67bd 35f5 8abc
000001b0: ccd0 40bc d464 673c f825 0cbd fb8c 4dbd
000001c0: cc0c 083d f9c9 e3bb e1e8 4ebd 5c68 b6bc
000001d0: 37c3 85bc a20b 80bb 8c71 bfb8 c092 033d
000001e0: 5644 a93c 5b72 90bc f57f 54bb 582d 33bc
000001f0: 8353 e7bc 1c70 83bd 59b8 ea3c c043 3abd
0.010276145 -0.0846807 -0.007024981 -0.052318923 -0.0059947013 0.006489917 -0.009387259 0.011714612
-0.037097193 -0.029406523 0.006153354 0.0009769513 -0.051675066 0.0034250624 -0.03823793 0.004321565
-0.018429704 -0.030217646 -0.012749874 -0.048474498 -0.021435268 -0.046604075 -0.03921143 -0.05925263
-0.054426946 0.0023522656 -0.055036463 -0.049600076 -0.029360257 -0.029833551 -0.009762846 -0.025660258
-0.014024181 0.0070458013 -0.06392066 0.0061822855 -0.020981424 -0.07023661 0.040952995 -0.06672115
-0.060913257 -0.0069310092 -0.04900316 -0.023803387 -0.0057513434 0.005478689 -0.019823898 -0.0028656058
-0.015391902 -0.02226974 -0.044116594 -0.020196687 -0.004848933 -0.0051463433 -0.07359401 0.021668326
-0.051432915 -0.013143577 -0.05430066 0.0020847968 -0.014834321 -0.045368347 -0.03512181 -0.01578079
-0.019550795 -0.06307037 -0.039938714 -0.07990282 0.038469795 -0.01381972 -0.017970294 -0.027709547
-0.02509339 -0.03735959 -0.053954437 0.027873045 -0.0075730905 -0.027039742 -0.014862358 0.006281198
-0.016896728 -0.032581598 -0.005332733 0.04090654 -0.049703773 0.01719564 -0.04130165 -0.018340293
-0.033940755 -0.010764246 -0.007428946 -0.038075384 0.028127922 -0.058713786 -0.0832334 0.032572057
0.03952422 -0.033397224 -0.020210475 -0.047492575 -0.053649776 -0.054943785 -0.026207415 -0.00026374822
-0.03480653 -0.0603726 -0.056465104 -0.016962627 -0.011768531 0.01412316 -0.034215897 -0.050183278
0.03321533 -0.0069515673 -0.05051506 -0.02226656 -0.016328437 -0.0039076367 -9.1287395e-05 0.032122374
0.020662468 -0.017632654 -0.00324249 -0.010936104 -0.028238064 -0.064178675 0.028652357 -0.045474768

sequential/conv2d_1/BiasAdd;sequential/conv2d/Conv2D;sequential/conv2d_1/Conv2D;conv2d_1/bias f4 [64]
00000000: 8f99 8e3d 497d 83bc 85a7 45bd 8930 91bc
00000010: acb9 79bd d2d6 adbc 7b47 77bd d72c 74bc
00000020: 5946 463d 9d23 6b3c 33e3 94bc 0a95 c6bc
00000030: f49d df3c cf19 6bbc cbdc 81bd e831 a5bc
00000040: ac67 d3bc c9e5 98bc a083 773d 9cb1 a3bd
00000050: 8c31 3bbd ccd3 d13c d45d 143d 77d6 85bd
00000060: 063b 03bd 6bde 1bbb 6127 a3bd 5c42 30bd
00000070: 8078 173d 655b 5fbd 1c96 40bb fe56 73bc
00000080: d79a e0bc 345d 49bd 9519 31bd e233 9cbc
00000090: bd44 1ebc dd12 483d 972f 14bd 945a 85bc
000000a0: bdbd babc 3449 5a3d 2d45 cebc bfa8 c3bc
000000b0: 9713 b2bc de91 4abd c90f d93c 8de9 3bbd
000000c0: 32c3 95bd 6ddb 0fbd 34fb 93bc 6b33 90bd
000000d0: 490a 6bbd 202f 24bd ca6c 47bd 4e72 8fbc
000000e0: 050d 56bc d73f 91bc de41 873b 56b7 63bc
000000f0: b017 70bc 4e3c b5bc 5996 80bd 25a7 263c
0.06962883 -0.016050952 -0.048255462 -0.017723339 -0.060968086 -0.021220598 -0.060370903 -0.014903269
0.048406933 0.014351753 -0.018174743 -0.02424099 0.027296998 -0.014349415 -0.06340941 -0.020165399
-0.02580627 -0.018664258 0.06042826 -0.07992861 -0.04570155 0.025613688 0.036222294 -0.065350465
-0.03203871 -0.0023783694 -0.07966495 -0.043032035 0.036980152 -0.05453052 -0.0029386347 -0.0148522835
-0.027417583 -0.04916115 -0.043237288 -0.019067708 -0.009659943 0.048846114 -0.036178198 -0.016278543
-0.022795552 0.05329247 -0.02517947 -0.023884175 -0.021737857 -0.049455516 0.026496785 -0.04587703
-0.07312621 -0.03512137 -0.018064119 -0.07041057 -0.057382856 -0.040084004 -0.048687734 -0.01751056
-0.013064628 -0.017730637 0.004127725 -0.013898691 -0.014654085 -0.022123482 -0.062786765 0.010171686

sequential/conv2d/BiasAdd;sequential/conv2d/Conv2D;conv2d/bias f4 [64]
00000000: 0e02 83bc 5f47 003c c1d2 7c3b 8df6 9ebd
00000010: e15c 91bc 782e 933a d1f6 d039 5625 dabc
00000020: 9fe3 0d3d cc04 5ebb fc87 123b 9be6 203d
00000030: e80a 92bc 5f07 923c 10f7 fe3c 70a4 32bc
00000040: a83e d53b 34b6 ddbc 9050 a5bb 22f5 62bc
00000050: e405 8e3d d3c7 a0bd a03a 3dbc b5aa 1f3d
00000060: d67e 03bd dfc5 fa38 1db1 37bc 00a6 a73c
00000070: 2abe 86bc 9249 8f3c 3ffc e2ba ea47 6e3b
00000080: cbb2 f73b 85a7 42bb 5fe0 453c 32e3 aabd
00000090: 90b0 5f39 6e8f 373c df97 86bc 9a96 9abc
000000a0: f988 d2bb cb0f 3ebd 3b27 60bc dec1 c5bc
000000b0: b7c7 d0bb c2a7 92bb 409a 3f3c 86a7 70bb
000000c0: e11f 9a3c b168 83bc 8039 923c 9171 d43b
000000d0: 6a78 2a3d 4961 c3ba 2e27 4dbb 0c5e c7bc
000000e0: 5b41 383c 425b 8ab9 a07e 0e3d d4a5 41bd
000000f0: 0b9a 09bd eb38 b63d 803d d9b7 4518 e5bc
-0.01599219 0.007829516 0.0038577768 -0.077618696 -0.017744483 0.0011229059 0.00039856744 -0.026629131
0.034640905 -0.003387737 0.0022358885 0.039282423 -0.017827466 0.01782578 0.031123668 -0.010903463
0.0065077133 -0.02706442 -0.005045004 -0.0138523895 0.06934717 -0.078506134 -0.011549622 0.03898116
-0.032103382 0.00011957785 -0.011211661 0.020464897 -0.0164481 0.017491136 -0.0017317607 0.0036358782
0.0075591556 -0.00297019 0.01207742 -0.08344115 0.00021332712 0.01120363 -0.01642984 -0.01887064
-0.00642502 -0.04640178 -0.013681228 -0.024140295 -0.006371464 -0.0044755647 0.011694491 -0.0036720945
0.01881403 -0.016041132 0.017849684 0.0064832647 0.041618742 -0.0014906313 -0.003130387 -0.024336837
0.011246051 -0.00026389404 0.034788728 -0.047277287 -0.033594172 0.08897575 -2.5897054e-05 -0.027965674

sequential/conv2d_3/Conv2D i1 [128, 3, 3, 128]
00000000: 1ccc e1e0 d506 aed5 e21c eca6 60d4 0a9b
00000010: de00 d23f 1217 1921 bbd6 1ee7 e2df e8dc
00000020: d5e2 28d4 04ac 2bdf eee8 2bd8 c6cf 0520
00000030: fe0e b4fa 1bd4 11e9 fa07 f3d4 b0dd 17db
00000040: 0ec1 44da e5d8 0fb6 ed2f e6d5 e716 3107
00000050: f3e5 012d f122 e4bf 1ebe d9fe 0fe2 face
00000060: d5c2 f4b5 f002 f5c2 e91f fff5 05ce d3ef
00000070: dbd0 cfc9 1bac 1cc8 c60b c4e9 003c d5e6
00000080: cebb 1827 d7ee ea29 f2e6 f9b7 762b d1e7
00000090: 162f f01e db07 e6bf 1832 df1f 1b21 1418
000000a0: fa0a 26cf cdab 0edf b91b 3313 b11b 1704
000000b0: 201b 13bb 96cf d509 f714 e507 1905 ecc6
000000c0: 1e05 0ff0 f658 a4b1 1ad0 f817 d9c8 2130
000000d0: 19de 0e35 c004 eb2d 34f8 0a0c c9e6 f7f3
000000e0: 1ddf d8c2 c53b c142 b7d3 3216 bae0 ed19
000000f0: 01c4 f606 1caa 0b04 cbf3 b21e fe07 020a
28 -52 -31 -32 -43 6 -82 -43
-30 28 -20 -90 96 -44 10 -101
-34 0 -46 63 18 23 25 33
-69 -42 30 -25 -30 -33 -24 -36
-43 -30 40 -44 4 -84 43 -33
-18 -24 43 -40 -58 -49 5 32
-2 14 -76 -6 27 -44 17 -23
-6 7 -13 -44 -80 -35 23 -37
14 -63 68 -38 -27 -40 15 -74
-19 47 -26 -43 -25 22 49 7
-13 -27 1 45 -15 34 -28 -65
30 -66 -39 -2 15 -30 -6 -50
-43 -62 -12 -75 -16 2 -11 -62
-23 31 -1 -11 5 -50 -45 -17
-37 -48 -49 -55 27 -84 28 -56
-58 11 -60 -23 0 60 -43 -26
-50 -69 24 39 -41 -18 -22 41
-14 -26 -7 -73 118 43 -47 -25
22 47 -16 30 -37 7 -26 -65
24 50 -33 31 27 33 20 24
-6 10 38 -49 -51 -85 14 -33
-71 27 51 19 -79 27 23 4
32 27 19 -69 -106 -49 -43 9
-9 20 -27 7 25 5 -20 -58
30 5 15 -16 -10 88 -92 -79
26 -48 -8 23 -39 -56 33 48
25 -34 14 53 -64 4 -21 45
52 -8 10 12 -55 -26 -9 -13
29 -33 -40 -62 -59 59 -63 66
-73 -45 50 22 -70 -32 -19 25
1 -60 -10 6 28 -86 11 4
-53 -13 -78 30 -2 7 2 10

sequential/conv2d_2/Conv2D i1 [128, 3, 3, 64]
00000000: 32f5 eae9 0b19 b2e8 15d4 1fe2 41e2 a9e7
00000010: eaeb 34e5 cfd5 551b c7e0 05ed 162a ac16
00000020: 1918 eb25 c26a c9f6 07fc 3010 53d1 fb1e
00000030: cf16 d2e6 e4f0 a9af bcfa d5bd e8bc f8de
00000040: 141c d62a 5035 c7ed f920 f323 5905 cb39
00000050: dc2a 58e0 2dd4 2fd2 db06 eb1e 0824 a2d3
00000060: fc1e 0fe0 e45b 2e32 0cf9 e944 352d 402a
00000070: d1fa 26fc d6f9 c2c2 c1ce 1b0e 32db d513
00000080: 3b10 e21b 0a24 c543 fb34 e909 f9ec c4e2
00000090: f4c9 520f f30c 6f31 e21c 160a 20ec eb16
000000a0: 0acb f330 d27f 1ee4 a737 261c db14 0f0c
000000b0: e8f5 e6ee de46 352f 2647 dafb 08c7 f212
000000c0: f9ae cbe7 4d02 1de1 3ae2 26e9 13e4 b306
000000d0: fb17 30e0 ea01 e4c5 fcd1 1fb6 2ccc b205
000000e0: fcca c304 262a d11c dc03 131d 11ec 2cb0
000000f0: e230 dd05 dafc 00da 89ed c330 24c9 bff7
50 -11 -22 -23 11 25 -78 -24
21 -44 31 -30 65 -30 -87 -25
-22 -21 52 -27 -49 -43 85 27
-57 -32 5 -19 22 42 -84 22
25 24 -21 37 -62 106 -55 -10
7 -4 48 16 83 -47 -5 30
-49 22 -46 -26 -28 -16 -87 -81
-68 -6 -43 -67 -24 -68 -8 -34
20 28 -42 42 80 53 -57 -19
-7 32 -13 35 89 5 -53 57
-36 42 88 -32 45 -44 47 -46
-37 6 -21 30 8 36 -94 -45
-4 30 15 -32 -28 91 46 50
12 -7 -23 68 53 45 64 42
-47 -6 38 -4 -42 -7 -62 -62
-63 -50 27 14 50 -37 -43 19
59 16 -30 27 10 36 -59 67
-5 52 -23 9 -7 -20 -60 -30
-12 -55 82 15 -13 12 111 49
-30 28 22 10 32 -20 -21 22
10 -53 -13 48 -46 127 30 -28
-89 55 38 28 -37 20 15 12
-24 -11 -26 -18 -34 70 53 47
38 71 -38 -5 8 -57 -14 18
-7 -82 -53 -25 77 2 29 -31
58 -30 38 -23 19 -28 -77 6
-5 23 48 -32 -22 1 -28 -59
-4 -47 31 -74 44 -52 -78 5
-4 -54 -61 4 38 42 -47 28
-36 3 19 29 17 -20 44 -80
-30 48 -35 5 -38 -4 0 -38
-119 -19 -61 48 36 -55 -65 -9

sequential/conv2d_1/Conv2D i1 [64, 3, 3, 64]
00000000: 0df0 0b07 c9f0 0cf1 39de e32a da02 0fde
00000010: 2b05 1f22 e5c3 dd4e 9407 1925 1f13 1816
00000020: 11eb 22e1 1311 da0d f4de c303 d415 c1c6
00000030: 43cf f229 fdfe 0bdb fcc4 010d ee37 fdd7
00000040: c71a cccb dce9 e3e2 2de3 e126 fc08 cddc
00000050: 0a1f f7f6 26eb 0d47 9dee db38 054f eee7
00000060: fd11 33d3 eb1d f103 e8c9 a400 b6e9 d1e8
00000070: 3dab 1028 dd1c 0e0b 04b7 f6e8 1015 19f0
00000080: c3f5 dbde ee3e e5f3 3713 f41a e9d7 e613
00000090: 2817 0f0e 2c00 2233 a602 e0ff e641 c5db
000000a0: 26fb 3ece 1ffc f014 1013 09f3 c2f8 d3cd
000000b0: 3edc e726 100b 2b01 af02 2bef e5f8 2de8
000000c0: 2004 d3ef f9ef d6c4 fe08 c6f9 f2fd e0f7
000000d0: e9d7 fffa 1fae 0020 bcea 182d f23e fcd7
000000e0: f909 13d3 d3f5 e1ee 04e6 eff6 dacd c2c3
000000f0: 71ec 211b cf07 f310 0a0b 1f10 ef31 e40c
13 -16 11 7 -55 -16 12 -15
57 -34 -29 42 -38 2 15 -34
43 5 31 34 -27 -61 -35 78
-108 7 25 37 31 19 24 22
17 -21 34 -31 19 17 -38 13
-12 -34 -61 3 -44 21 -63 -58
67 -49 -14 41 -3 -2 11 -37
-4 -60 1 13 -18 55 -3 -41
-57 26 -52 -53 -36 -23 -29 -30
45 -29 -31 38 -4 8 -51 -36
10 31 -9 -10 38 -21 13 71
-99 -18 -37 56 5 79 -18 -25
-3 17 51 -45 -21 29 -15 3
-24 -55 -92 0 -74 -23 -47 -24
61 -85 16 40 -35 28 14 11
4 -73 -10 -24 16 21 25 -16
-61 -11 -37 -34 -18 62 -27 -13
55 19 -12 26 -23 -41 -26 19
40 23 15 14 44 0 34 51
-90 2 -32 -1 -26 65 -59 -37
38 -5 62 -50 31 -4 -16 20
16 19 9 -13 -62 -8 -45 -51
62 -36 -25 38 16 11 43 1
-81 2 43 -17 -27 -8 45 -24
32 4 -45 -17 -7 -17 -42 -60
-2 8 -58 -7 -14 -3 -32 -9
-23 -41 -1 -6 31 -82 0 32
-68 -22 24 45 -14 62 -4 -41
-7 9 19 -45 -45 -11 -31 -18
4 -26 -17 -10 -38 -51 -62 -61
113 -20 33 27 -49 7 -13 16
10 11 31 16 -17 49 -28 12

sequential/conv2d/Conv2D i1 [64, 3, 3, 3]
00000000: 262d 1210 e3af d85c e8e7 2f1c 81ff d5ce
00000010: f5de 2c03 2b9d 3e01 d958 cfd3 c6f7 e63d
00000020: c5f6 cee7 270d b624 7728 a2d8 e1f0 ff45
00000030: 1c34 b081 cc28 3643 d502 5066 0069 dd2a
00000040: b367 b4b3 5d19 dd35 a607 339f 44b8 8199
00000050: f961 ffb2 443a e0c0 81d5 7c20 18bb 53f2
00000060: 62af eecd 4826 b647 4d60 b7f4 a2b1 5aab
00000070: cdf9 535f ea10 2425 a0ce df5c 63e3 50ea
00000080: 9afd 81c3 5932 b581 a4f6 e90b 1429 484d
00000090: b3e0 9364 1f50 bef4 160f 9c1b d24d dd4b
000000a0: fe27 6f45 4f81 8d4a d718 8fc5 37de fc16
000000b0: b84c 24ed d50b febf f8a5 baf6 af2e f52e
000000c0: 4ba6 38ff b8d6 f681 f7db 5a30 271c 245b
000000d0: 9427 b5bf 34f4 d147 e163 980f eeed d157
000000e0: bcaa 1fb0 cc06 45ba 7fd1 ae13 e93c 10b5
000000f0: be46 b11a f33a 34f3 c381 9ec3 ee43 dde7
38 45 18 16 -29 -81 -40 92
-24 -25 47 28 -127 -1 -43 -50
-11 -34 44 3 43 -99 62 1
-39 88 -49 -45 -58 -9 -26 61
-59 -10 -50 -25 39 13 -74 36
119 40 -94 -40 -31 -16 -1 69
28 52 -80 -127 -52 40 54 67
-43 2 80 102 0 105 -35 42
-77 103 -76 -77 93 25 -35 53
-90 7 51 -97 68 -72 -127 -103
-7 97 -1 -78 68 58 -32 -64
-127 -43 124 32 24 -69 83 -14
98 -81 -18 -51 72 38 -74 71
77 96 -73 -12 -94 -79 90 -85
-51 -7 83 95 -22 16 36 37
-96 -50 -33 92 99 -29 80 -22
-102 -3 -127 -61 89 50 -75 -127
-92 -10 -23 11 20 41 72 77
-77 -32 -109 100 31 80 -66 -12
22 15 -100 27 -46 77 -35 75
-2 39 111 69 79 -127 -115 74
-41 24 -113 -59 55 -34 -4 22
-72 76 36 -19 -43 11 -2 -65
-8 -91 -70 -10 -81 46 -11 46
75 -90 56 -1 -72 -42 -10 -127
-9 -37 90 48 39 28 36 91
-108 39 -75 -65 52 -12 -47 71
-31 99 -104 15 -18 -19 -47 87
-68 -86 31 -80 -52 6 69 -70
127 -47 -82 19 -23 60 16 -75
-66 70 -79 26 -13 58 52 -13
-61 -127 -98 -61 -18 67 -35 -25

dense_1/bias f4 [4]
00000000: a287 4c3d 0adb 1ebd d0b9 75bd cd5d 343d
0.049934037 -0.03878311 -0.059991658 0.044034768

dense/bias f4 [256]
00000000: e2db 833d b96d 903d f30e 18bd f0cc ea3c
00000010: dc2b cdbb e457 9a3c e613 993d 6fa7 8fbc
00000020: 4374 a7bc 0518 1abc 9a00 03bc f65b ebbb
00000030: 4a8f f1bb 7a87 71bc 9050 3a3d 177f a1bc
00000040: 8d02 4ebc 66f5 7fbc abb8 1ebc f1d3 d3bb
00000050: f80f 20bd 8b44 d13d b35e 97bc 8616 c7bb
00000060: ed23 843d cedc 283d ca46 9c39 f567 693c
00000070: 6747 1fbd a5cb 543d 4b07 05bd b857 933a
00000080: e038 253d ec0a 493c 184a 7dbb d86b 593d
00000090: 47af b0bc 3798 4dbc 0c0b 8a3a ff5d 3ebc
000000a0: 9f29 19bd 04d5 85bc c0c1 ca3c cc3c 903d
000000b0: 28ed 0cbc 4fea 63bc a8c8 29bd 0fc2 a3bc
000000c0: f1ea 2dbd f284 c9bb 96de 2abd 685c b03d
000000d0: 841e 35bc 59f9 883d 0338 c6bc 8311 dfbc
000000e0: 3955 47bd 9ff9 71bd 481c 32bc b445 053d
000000f0: 747f 0d3d cde0 bfbc a764 8b3d 6381 813d
00000100: 9011 c73d 0aee 473d 5332 0cbd 2415 11bc
00000110: 1841 873d bde8 18bc 6a59 34bd 809c cebc
00000120: 0899 2bbb e685 15bb d3e8 a23c 970a f0bb
00000130: 8af0 35bc af50 943b 49a8 3bbc 1e91 15bd
00000140: ed66 583d 8e6b d6bb 4ecf ae3d 93be 2dbd
00000150: 697d 91bc 5dda b2bc f8ce 26bc e528 09bc
00000160: fa1b 513b 099f 0bbc 461c 763d 7c25 eebb
00000170: 2201 853d d42a 9fbc fdec 27bd f5d0 46bd
00000180: c8ed a4bc ee89 efbb 1b15 ffbb d00a 34bc
00000190: b8e0 4dbc 0fc1 7e3d 3de1 b43c fefc 8c3d
000001a0: 94a5 a9bc 7ca6 09bd 9f26 053d ea4a abbc
000001b0: 3644 033d 409b 3dbc 29a9 51bc 20bb feba
000001c0: edfa 01bd fd84 9f3d 6162 243d e892 bebc
000001d0: 717f 25bc 9f5d c53d ddf2 09bd fc4b 73bb
000001e0: 629e cebc 18f6 92bb 278b 273c 9763 df3c
000001f0: ca5c 74bc 9f6a ecbc 8cd7 95bc d500 bfbc
00000200: 3d2c b9bb 79e5 52bd 7bbb 9dbc d072 573d
00000210: 719a 333d ae72 1c3d 81b8 f2bb 8a3e 1cbd
00000220: bc68 7bbc 137c 943d d806 edbc 7010 e6bb
00000230: 2bdf f33b 150c ecbb 6f4d a03d ddee 923d
00000240: be4f 3fbd f6c3 a9bc 6809 1dbd f748 563d
00000250: f4bd 82bc fe6a 17bd 7ee5 403d 9375 9abc
00000260: 33d3 f6bb 081b c8bb ef19 9ebc 5b15 cfbc
00000270: 5fad e0bc ecda a2bb 877e 08bd 2c7e 373d
00000280: 3240 f23c da17 caba c393 20bc 4e2d 803d
00000290: efed 3f3d 4fa7 9b3d 8b35 e5bc cd4a b6bb
000002a0: 18a7 f6bb 323f 07bc a931 c33d bdc7 e4bb
000002b0: 1932 65bc 04ed ff3b 50f2 e23d e27a 403d
000002c0: 4702 1c3d 704c ae3d 6cbe 1bbc a7c2 173d
000002d0: 24d3 733d 6c97 7abc 43e6 e9bc cdd3 973b
000002e0: c1e1 c9bc b093 05bd 0c78 27bd 554b 823c
000002f0: 81a0 3f3a 7cf7 77bc ba9f afbc 1e7f 6abb
00000300: cbcf a73b 5c51 01bd bf4b 7b3d a2f9 aa3d
00000310: e870 2bbc fd79 ecbb d9b5 67bc 499a cbbc
00000320: 70ac 953d 895e 8f3d b4c3 27bc ea00 c3bc
00000330: d00a ee3d e104 d1bb 4ac9 23bd d0a7 05bd
00000340: 2815 82bc d1ee 0dbd 44e9 2f3c 26c4 023c
00000350: bafa 693c 08f2 d83d 534b 203d 44b5 46bc
00000360: 837e 5e3d 3bbb 3f3d 6d32 87bc 41fc 0ebd
00000370: 90a3 11bc 543c 123d 61f4 5dbc ae52 41bd
00000380: a02b 3b3d 2fdb cebb e814 883d 9f5f ca3c
00000390: 878b 583d 468f 303d 2100 28bd 94db 28bc
000003a0: eb08 9c3d 43d3 bc3d 7394 a7bb a424 49bd
000003b0: a006 00bc 0850 353d 514f c6bb a14c 2bbc
000003c0: d1e6 b7bb 1e17 203d 7711 043d 3e96 93bb
000003d0: 3726 8bbc edd6 943c 6848 5abd 2376 0dbc
000003e0: ac4b be3d d17a af3d 02bb 313d b095 23bd
000003f0: 232d a2bb 34e8 1bbc 0fae 46bd 9635 aa3d
0.06438424 0.07052178 -0.03712363 0.028662175 -0.006261332 0.018840738 0.074744985 -0.017535893
-0.02044118 -0.009405141 -0.007995749 -0.0071825935 -0.0073718177 -0.014741773 0.045486987 -0.019713921
-0.01257385 -0.015622472 -0.009687583 -0.0064644744 -0.03907773 0.10218152 -0.018477773 -0.006075683
0.06452165 0.0412262 0.0002980738 0.014245977 -0.038886454 0.051952023 -0.03247766 0.0011241352
0.040337443 0.01227067 -0.00386489 0.053081363 -0.021567954 -0.012548498 0.0010531857 -0.01161909
-0.03739321 -0.016336925 0.02475059 0.07042846 -0.008601464 -0.013910844 -0.041451126 -0.019989995
-0.042460386 -0.0061498815 -0.04171618 0.08611375 -0.011054639 0.06688184 -0.02419663 -0.02723003
-0.04866526 -0.059075948 -0.010871001 0.032537177 0.034545377 -0.023422623 0.06806307 0.06323507
0.09720147 0.048810996 -0.03422768 -0.008855138 0.066042125 -0.009332833 -0.044030584 -0.02522111
-0.0026183743 -0.0022815405 0.01988641 -0.007325481 -0.011104712 0.00452622 -0.0114536965 -0.036515348
0.052832533 -0.0065435832 0.08535634 -0.042418074 -0.017759996 -0.02183264 -0.010181181 -0.008371566
0.0031907544 -0.008521804 0.060085557 -0.007267652 0.06494357 -0.019429602 -0.040997494 -0.04853912
-0.020132914 -0.0073101437 -0.0077844984 -0.010988906 -0.012565784 0.062195834 0.022080058 0.06884192
-0.020708837 -0.033606037 0.032507535 -0.020909745 0.032047473 -0.011572659 -0.012796679 -0.001943443
-0.031733442 0.077890374 0.040132884 -0.02326341 -0.010101185 0.096369974 -0.033678878 -0.0037124148
-0.025222007 -0.004484903 0.010226048 0.027269168 -0.014914701 -0.028859435 -0.018291257 -0.023315826
-0.0056510256 -0.051488373 -0.019254437 0.052599728 0.04384846 0.038195305 -0.0074072485 -0.03814558
-0.015344795 0.07250228 -0.028933927 -0.0070210025 0.007442375 -0.0072035887 0.07827269 0.07174466
-0.046706907 -0.020723324 -0.03833905 0.05231568 -0.015959717 -0.03696727 0.04709386 -0.018854892
-0.007532501 -0.006106738 -0.019299475 -0.025278738 -0.02742642 -0.004969945 -0.03332379 0.04479806
0.029571626 -0.0015418485 -0.009800854 0.06258641 0.04685777 0.07600271 -0.027979633 -0.005563116
-0.0075272433 -0.008254813 0.09530956 -0.0069818185 -0.013988995 0.007810237 0.11081374 0.04699219
0.03808811 0.08510673 -0.009505849 0.03705087 0.05952753 -0.015294891 -0.02855218 0.004633403
-0.02464378 -0.03261155 -0.04088597 0.015905062 0.0007309989 -0.0151346885 -0.021438468 -0.0035781334
0.0051212064 -0.03157173 0.061351534 0.08348395 -0.010463931 -0.0072166906 -0.014142477 -0.024853842
0.073082805 0.07000453 -0.01023953 -0.023804147 0.11623156 -0.0063787554 -0.039986886 -0.03263074
-0.015879229 -0.03465158 0.010736767 0.007981336 0.014280969 0.10593039 0.039134335 -0.012128178
0.05431987 0.046809416 -0.016503537 -0.034908537 -0.008889094 0.035702065 -0.013547034 -0.04719799
0.0456959 -0.00631275 0.066446126 0.024703799 0.05286744 0.043105386 -0.041015748 -0.010306258
0.076188885 0.092199825 -0.005114132 -0.04910721 -0.0078140795 0.044265777 -0.0060519357 -0.0104552815
-0.0056122323 0.039084546 0.03224322 -0.0045039942 -0.016985996 0.01816889 -0.05329171 -0.008634123
0.09291777 0.08568347 0.043391235 -0.039937675 -0.0049492284 -0.009515811 -0.04850584 0.08311002

sequential/dense/MatMul i1 [256, 2048] scale=0.002542487 zero_point=0
00000000: f7fa 07ff 1612 f30b 140f 1b02 f8e2 133d
00000010: 04fb f502 2a01 2011 35fb 0f14 fdec 2504
00000020: 1bf8 05fe 02d6 02e7 f615 f910 19fc 0309
00000030: f90a 0209 e9fa eaf2 fcfe 0e08 07f0 01e3
00000040: f7ea f12e f3fd fd11 f105 effa 0df3 ec22
00000050: f7f9 0614 ca0a f8ef e60c 11fd fa0e fcfc
00000060: 0109 12f2 0e09 00d0 2afa d601 0801 f2e4
00000070: d217 f000 f7fd 28db 02e8 130d 0c11 08ff
00000080: 0612 fbe8 071c 0b0a f816 0f00 00ed 190f
00000090: fbf4 f014 0bf6 0613 34f7 ee00 e8de 05eb
000000a0: 150e fbfc dfeb f9f6 f9f1 f1ff 1100 2afc
000000b0: 0f06 fc22 11f8 eaf7 1616 f3f7 2108 f3ef
000000c0: 00e4 0cfc eaef 00f3 f601 f003 0b09 031f
000000d0: 000f f503 e603 e50f f023 faf0 0bf8 1412
000000e0: 0114 260e ff0f 11fb 16f8 f51a 151e fc0e
000000f0: e60c 0720 f312 2a01 04f5 090f 01fd 1410
-0.022882383 -0.015254922 0.01779741 -0.002542487 0.055934716 0.045764767 -0.033052333 0.027967358
0.050849743 0.038137306 0.06864715 0.005084974 -0.020339897 -0.07627461 0.048307255 0.15509172
0.010169948 -0.012712436 -0.027967358 0.005084974 0.106784455 0.002542487 0.08135959 0.043222282
0.13475181 -0.012712436 0.038137306 0.050849743 -0.007627461 -0.050849743 0.09407202 0.010169948
0.06864715 -0.020339897 0.012712436 -0.005084974 0.005084974 -0.106784455 0.005084974 -0.06356218
-0.025424872 0.053392228 -0.01779741 0.040679794 0.06356218 -0.010169948 0.007627461 0.022882383
-0.01779741 0.025424872 0.005084974 0.022882383 -0.058477204 -0.015254922 -0.055934716 -0.03559482
-0.010169948 -0.005084974 0.03559482 0.020339897 0.01779741 -0.040679794 0.002542487 -0.07373212
-0.022882383 -0.055934716 -0.038137306 0.11695441 -0.033052333 -0.007627461 -0.007627461 0.043222282
-0.038137306 0.012712436 -0.043222282 -0.015254922 0.033052333 -0.033052333 -0.050849743 0.086444564
-0.022882383 -0.01779741 0.015254922 0.050849743 -0.1372943 0.025424872 -0.020339897 -0.043222282
-0.066104665 0.030509844 0.043222282 -0.007627461 -0.015254922 0.03559482 -0.010169948 -0.010169948
0.002542487 0.022882383 0.045764767 -0.03559482 0.03559482 0.022882383 0.0 -0.12203938
0.106784455 -0.015254922 -0.106784455 0.002542487 0.020339897 0.002542487 -0.03559482 -0.07118964
-0.11695441 0.058477204 -0.040679794 0.0 -0.022882383 -0.007627461 0.10169949 -0.09407202
0.005084974 -0.06101969 0.048307255 0.033052333 0.030509844 0.043222282 0.020339897 -0.002542487
0.015254922 0.045764767 -0.012712436 -0.06101969 0.01779741 0.07118964 0.027967358 0.025424872
-0.020339897 0.055934716 0.038137306 0.0 0.0 -0.048307255 0.06356218 0.038137306
-0.012712436 -0.030509844 -0.040679794 0.050849743 0.027967358 -0.025424872 0.015254922 0.048307255
0.13220933 -0.022882383 -0.045764767 0.0 -0.06101969 -0.086444564 0.012712436 -0.053392228
0.053392228 0.03559482 -0.012712436 -0.010169948 -0.083902076 -0.053392228 -0.01779741 -0.025424872
-0.01779741 -0.038137306 -0.038137306 -0.002542487 0.043222282 0.0 0.106784455 -0.010169948
0.038137306 0.015254922 -0.010169948 0.086444564 0.043222282 -0.020339897 -0.055934716 -0.022882383
0.055934716 0.055934716 -0.033052333 -0.022882383 0.083902076 0.020339897 -0.033052333 -0.043222282
0.0 -0.07118964 0.030509844 -0.010169948 -0.055934716 -0.043222282 0.0 -0.033052333
-0.025424872 0.002542487 -0.040679794 0.007627461 0.027967358 0.022882383 0.007627461 0.0788171
0.0 0.038137306 -0.027967358 0.007627461 -0.066104665 0.007627461 -0.06864715 0.038137306
-0.040679794 0.08898705 -0.015254922 -0.040679794 0.027967358 -0.020339897 0.050849743 0.045764767
0.002542487 0.050849743 0.09661451 0.03559482 -0.002542487 0.038137306 0.043222282 -0.012712436
0.055934716 -0.020339897 -0.027967358 0.066104665 0.053392228 0.07627461 -0.010169948 0.03559482
-0.066104665 0.030509844 0.01779741 0.08135959 -0.033052333 0.045764767 0.106784455 0.002542487
0.010169948 -0.027967358 0.022882383 0.038137306 0.002542487 -0.007627461 0.050849743 0.040679794

sequential/dense_1/MatMul i1 [4, 256] scale=0.0024424503 zero_point=0
00000000: 3c26 0133 fc25 37dd ec39 3912 0317 1de7
00000010: d50f fd35 13dd fa27 a405 fa09 f1c2 d72a
00000020: 2910 0326 a907 dd24 cae3 31df 2eb2 d521
00000030: cd2a fa35 3db9 330c bccd e71c e309 1049
00000040: 1fbe 04e4 aff8 fcd6 1431 ee1c 1c28 21cd
00000050: 2922 37eb ed04 eced 1e1d 1fd0 4222 eae5
00000060: e22f 24d1 e809 09f8 e2d2 1cfc c233 11d8
00000070: 0cc8 0404 d91c e2e8 0e37 e518 2cfd 1ad6
00000080: 1c0c da44 3abe e8fa 2b07 cc30 1024 1bda
00000090: f3d2 1c0c d3d0 140f c7fb c3f8 f306 cb27
000000a0: 2cf2 2d3b ae16 0fdc 081f 151a f521 331b
000000b0: 0ef7 d2be 0ec9 0cf6 dfcb cd32 f9f9 cbc8
000000c0: 3627 1035 38d6 0ef8 ee36 37b5 19eb fdf5
000000d0: e7e6 25c4 2227 2c2d 362e 211e cb2c 38b7
000000e0: e906 0423 eb26 f5f8 f319 c4e6 cd28 050a
000000f0: d5fd 1bdc ccf7 2312 0e00 2218 3226 c727
0.14654702 0.09281311 0.0024424503 0.12456496 -0.009769801 0.09037066 0.13433476 -0.08548576
-0.048849005 0.13921967 0.13921967 0.043964103 0.007327351 0.056176357 0.07083106 -0.061061256
-0.10502536 0.036636755 -0.007327351 0.12944986 0.046406556 -0.08548576 -0.014654702 0.09525556
-0.22470543 0.012212251 -0.014654702 0.021982051 -0.036636755 -0.15143192 -0.10014046 0.10258291
0.10014046 0.039079204 0.007327351 0.09281311 -0.21249317 0.017097153 -0.08548576 0.087928206
-0.13189231 -0.07083106 0.11968006 -0.08060086 0.112352714 -0.19051112 -0.10502536 0.08060086
-0.12456496 0.10258291 -0.014654702 0.12944986 0.14898947 -0.17341396 0.12456496 0.029309403
-0.16608661 -0.12456496 -0.061061256 0.06838861 -0.07083106 0.021982051 0.039079204 0.17829888
0.07571596 -0.16120172 0.009769801 -0.06838861 -0.19783847 -0.019539602 -0.009769801 -0.10258291
0.048849005 0.11968006 -0.043964103 0.06838861 0.06838861 0.09769801 0.08060086 -0.12456496
0.10014046 0.08304331 0.13433476 -0.051291455 -0.046406556 0.009769801 -0.048849005 -0.046406556
0.07327351 0.07083106 0.07571596 -0.11723761 0.16120172 0.08304331 -0.053733908 -0.065946154
-0.07327351 0.11479516 0.087928206 -0.11479516 -0.058618806 0.021982051 0.021982051 -0.019539602
-0.07327351 -0.112352714 0.06838861 -0.009769801 -0.15143192 0.12456496 0.041521654 -0.09769801
0.029309403 -0.13677722 0.009769801 0.009769801 -0.09525556 0.06838861 -0.07327351 -0.058618806
0.034194306 0.13433476 -0.065946154 0.058618806 0.107467815 -0.007327351 0.063503705 -0.10258291
0.06838861 0.029309403 -0.09281311 0.16608661 0.14166212 -0.16120172 -0.058618806 -0.014654702
0.10502536 0.017097153 -0.12700741 0.11723761 0.039079204 0.087928206 0.065946154 -0.09281311
-0.031751852 -0.112352714 0.06838861 0.029309403 -0.109910265 -0.11723761 0.048849005 0.036636755
-0.13921967 -0.012212251 -0.14898947 -0.019539602 -0.031751852 0.014654702 -0.12944986 0.09525556
0.107467815 -0.034194306 0.109910265 0.14410457 -0.20028092 0.053733908 0.036636755 -0.087928206
0.019539602 0.07571596 0.051291455 0.063503705 -0.026866954 0.08060086 0.12456496 0.065946154
0.034194306 -0.021982051 -0.112352714 -0.16120172 0.034194306 -0.13433476 0.029309403 -0.024424503
-0.08060086 -0.12944986 -0.12456496 0.12212251 -0.017097153 -0.017097153 -0.12944986 -0.13677722
0.13189231 0.09525556 0.039079204 0.12944986 0.13677722 -0.10258291 0.034194306 -0.019539602
-0.043964103 0.13189231 0.13433476 -0.18318377 0.061061256 -0.051291455 -0.007327351 -0.026866954
-0.061061256 -0.063503705 0.09037066 -0.14654702 0.08304331 0.09525556 0.107467815 0.109910265
0.13189231 0.112352714 0.08060086 0.07327351 -0.12944986 0.107467815 0.13677722 -0.17829888
-0.056176357 0.014654702 0.009769801 0.08548576 -0.051291455 0.09281311 -0.026866954 -0.019539602
-0.031751852 0.061061256 -0.14654702 -0.063503705 -0.12456496 0.09769801 0.012212251 0.024424503
-0.10502536 -0.007327351 0.065946154 -0.087928206 -0.12700741 -0.021982051 0.08548576 0.043964103
0.034194306 0.0 0.08304331 0.058618806 0.12212251 0.09281311 -0.13921967 0.09525556
